…
的 key必须\n和 model.state_dict() 返回的 key一致。 NOTE：用来加载模型参数。\n参数说明 :\n\nstate_dict (dict) – 保存 parameters 和persistent buffers 的字典。\nmodules()\n返回一个包含 当前模型 所有模块的迭代器。\nimport torch.nn as nn\nclass Model(nn.Module):\n\ndef __
06_PyTorch常用函数手册.md	) – 保存 parameters 和persistent buffers 的字典。\nmodules()\n返回一个包含 当前模型 所有模块的迭代器。\nimport torch.nn as nn\nclass Model(nn.Module):\n\ndef __init__(self):\n super(Model, self).__init__()\n self.add_module("conv", nn.Conv2d(10, 20, 4))\n self.add_module("conv1", nn.Conv2d(20 ,10, 4))\nmodel = Model()\n\nfor module in model.modules():\n print(module)\nModel (\n (conv): Conv2d(10, 20, kernel_size=(4, 4), stride=(1, 1))\n (conv1): Conv2d(20, 10, kernel_size=(4, 4), stride=(1, 1))\n)\nConv2d(10, 20, kernel_size=(4, 4), stride=(1, 1))\nCo
06_PyTorch常用函数手册.md	tride=(1, 1))\n (conv1): Conv2d(20, 10, kernel_size=(4, 4), stride=(1, 1))\n)\nConv2d(10, 20, kernel_size=(4, 4), stride=(1, 1))\nConv2d(20, 10, k ernel_size=(4, 4), stride=(1, 1))\n可以看出， modules() 返回的 iterator不止包含 子模块。这是和 children() 的不同。\nNOTE： 重复的模块只被返回一次 (children() 也是 )。 在下面的例子中 , submodule 只会被返回一次：\nimport torch.nn as nn\n\nclass Model(nn.Module):\n def __init__(self):\n super(Model, self).__init__()\n submodule = nn.Conv2d(10, 20, 4)\n self.add_module("conv", submodule)\n self.add_module("conv1", submodule)\nmodel =
06_PyTorch常用函数手册.md	f).__init__()\n submodule = nn.Conv2d(10, 20, 4)\n self.add_module("conv", submodule)\n self.add_module("conv1", submodule)\nmodel = Model()\n\nfor module in model.modules():\n print(module)\nModel (\n (conv): Conv2d(10, 20, kernel_size=(4, 4), stride=(1, 1))\n (conv1): Conv2d(10, 20, kernel_size=(4, 4), stride=(1, 1))\n)\nConv2d(10, 20, kernel_size=(4, 4), stride=(1, 1))\nnamed_children()\n返回 包含 模型当前子模块 的迭代器， yield 模块名字和模块本身。\n\nfor name, module in model. named_children():\n if name in ['conv4', 'conv5']:\n print(module)\nna
06_PyTorch常用函数手册.md	含 模型当前子模块 的迭代器， yield 模块名字和模块本身。\n\nfor name, module in model. named_children():\n if name in ['conv4', 'conv5']:\n print(mod
…
odule(key, module) # add_module⽅方法会将module添加进self._modules(⼀一个OrderedDict) else: # 传⼊入的是⼀一些Module for idx, module in enumerate(args): self.add_module
08_动手学深度学习PyTorch.md	add_module⽅方法会将module添加进self._modules(⼀一个OrderedDict) else: # 传⼊入的是⼀一些Module for idx, module in enumerate(args): self.add_module(str(idx), module) def forward(self, input): # self._modules返回⼀一个 OrderedDict，保证会按照成员添加时的顺序遍历成 for module in self._modules.values(): input = module(input) return input123456789101112131415net = MySequential( nn.Linear(784, 256), nn.ReLU(), nn.Linear(256, 10), )print(net)net(X)1234567MySequential( (0): Linear(in_features=784, out_features=256, bias=True) (1): ReLU() (2): Linear(in_f
08_动手学深度学习PyTorch.md	0), )print(net)net(X)1234567MySequential( (0): Linear(in_features=784, out_features=256, bias=True) (1): ReLU() (2): Linear(in_features=256, out_features=10, bias=True))tensor([[… grad_fn=<ThAddmmBackward>)123456789\n\nModuleList接收⼀一个⼦子模块的列列表作为输⼊入，然后也可以类似List那样进⾏行行append和extend操作:\n输出：4.1.2.3 ModuleDict类 ModuleDict接收⼀一个⼦子模块的字典作为输⼊入, 然后也可以类
08_动手学深度学习PyTorch.md	56789\n\nModuleList接收⼀一个⼦子模块的列列表作为输⼊入，然后也可以类似List那样进⾏行行append和extend操作:\n输出：4.1.2.3 ModuleDict类 ModuleDict接收⼀一个⼦子模块的字典作为输⼊入, 然后也可以类似字典那样进⾏行行添加访问操作:\n输出：\n4.1.3 构造复杂的模型 net = nn.ModuleList([nn.Linear(784, 256), nn.ReLU()])net.append(nn.Linear(256, 10)) # # 类似List的append操作print(net[-1]) # 类似List的索引访问print(net)1234Linear(in_features=256, out_features=10, bias=True)ModuleList( (0): Linear(in_features=784, out_features=256, bias=True) (1): ReLU() (2): Linear(in_features=256, out_features=10, bias=True))123456\nnet = n
08_动手学深度学习PyTorch.md	n_features=784, out_features=256, bias=True) (1): ReLU() (2): Linear(in_features=256, out_features=10, bias=True))123456\nnet = nn.ModuleDict({ 'linear': nn.Linear(784, 256), 'act': nn.ReLU(),})net['output'] = nn.Linear(256, 10) # 添加print(net['linear']) # 访问print(net.output)print(net)12345678Linear(in_features=784, out_features=256, bias=True)Linear(in_features=256, out_features=10, bias=True)ModuleDict( (act): ReLU() (linear): Linear(in_features=784, out_features=256, bias=True) (output): Linear(in_features
08_动手学深度学习PyTorch.md	bias=True)ModuleDict( (act): ReLU() (linear): Linear(in_features=784, out_features=256, bias=True) (output): Linear(in_features=256, out_features=10, bias=True))1234567\n\n虽然上⾯面介绍的这些类可以使模型构造更更加简单，且不不需要定义forward 函 数 ， 但 直 接 继 承Module类可以极⼤大地拓拓展模型构造的灵活性。下⾯面我们构造⼀一个稍微复杂点的⽹网络FancyMLP 。 在 这 个 ⽹网 络中，我们通过get_constant 函 数 创 建 训 练 中 不不 被 迭 代 的 参 数 ， 即 常 数 参 数 。 在 前 向 计 算 中 ， 除 了了 使 ⽤用创建的常数参数外，我们还使⽤用Tensor的函数和Python的控制流，并多次调⽤用相同的层。\n在这个FancyMLP 模 型 中 ， 我 们 使 ⽤用 了了 常 数 权 重rand_weight （ 注 意 它 不不 是 可 训 练 模 型 参 数 ） 、 做 了了矩阵乘
…
参数） self.linear = nn.Linear(20, 20) def forward(self, x): x = self.linear(x) # 使⽤用创建的常数参数，以及nn.functional中的re
08_动手学深度学习PyTorch.md	False) # 不不可训练参数（常数参数） self.linear = nn.Linear(20, 20) def forward(self, x): x = self.linear(x) # 使⽤用创建的常数参数，以及nn.functional中的relu函数和mm函数 x = nn.functional.relu(torch.mm(x, self.rand_weight.data) + 1) # 复⽤用全连接层。等价于两个全连接层共享参数 x = self.linear(x) # 控制流，这⾥里里我们需要调⽤用item函数来返回标量量进⾏行行⽐比较 while x.norm().item() > 1: x /= 2 if x.norm().item() < 0.8: x *= 10 return x.sum()1234567891011121314151617181920X = torch.rand(2, 20)net = FancyMLP()print(net)net(X)1234FancyMLP( (linear): Linear(in_features=20, out_features=20, b
08_动手学深度学习PyTorch.md	1617181920X = torch.rand(2, 20)net = FancyMLP()print(net)net(X)1234FancyMLP( (linear): Linear(in_features=20, out_features=20, bias=True))tensor(0.8432, grad_fn=<SumBackward0>)1234\n\n输出：\n⼩小结 可以通过继承Module类来构造模型。Sequential、ModuleList、ModuleDict类都继承⾃自Module类。 虽 然Sequential 等 类 可 以 使 模 型 构 造 更更 加 简 单 ， 但 直 接 继 承Module 类 可 以 极 ⼤大 地 拓拓 展 模 型 构造的灵活性。 注：本节与原书此节有⼀一些不不同，原书传送⻔门 class NestMLP(nn.Module): def __init__(self, **kwargs): super(NestMLP, self).__init__(**kwargs) self.net = nn.Sequential(nn.Linear(40, 30), nn.
08_动手学深度学习PyTorch.md	n.Module): def __init__(self, **kwargs): super(NestMLP, self).__init__(**kwargs) self.net = nn.Sequential(nn.Linear(40, 30), nn.ReLU()) def forward(self, x): return self.net(x)net = nn.Sequential(NestMLP(), nn.Linear(30, 20), FancyMLP())X = torch.rand(2, 40)print(net)net(X)12345678910111213Sequential( (0): NestMLP( (net): Sequential( (0): Linear(in_features=40, out_features=30, bias=True) (1): ReLU() ) ) (1): Linear(in_features=30, out_features=20, bias=True) (2): FancyMLP( (linear): Linear(in_features=20,
08_动手学深度学习PyTorch.md	s=True) (1): ReLU() ) ) (1): Linear(in_features=30, out_features=20, bias=True) (2): FancyMLP( (linear): Linear(in_features=20, out_features=20, bias=True) ))tensor(14.4908, grad_fn=<SumBackward0>)12345678910111213\n\n4.2 模型参数的访问、初始化和共享 在3.3节（线性回归的简洁实现）中，我们通过init 模 块 来 初 始 化 模 型 的 参 数 。 我 们 也 介 绍 了了 访 问 模 型参数的简单⽅方法。本节将深⼊入讲解如何访问和初始化模型参数，以及如何在多个层之间共享同⼀一份模型参数。我们先定义⼀一个与上⼀一节中相同的含单隐藏层的多层感知机。我们依然使⽤用默认⽅方式初始化它的参数，并做⼀一次前向计算。与之前不不同的是，在这⾥里里我们从nn 中 导 ⼊入 了了init 模 块 ， 它 包 含 了了 多 种 模 型 初 始化⽅方法。\n输出：4.2.1 访问模型参数 回忆⼀一下上⼀一节中提到的S
…
08_动手学深度学习PyTorch.md	Linear(120, 84), nn.Sigmoid(), nn.Linear(84, 10) ) def forward(self, img): feature = self.conv(img)123456789101112131415161718192021222324252627282930\n\n接下来查看每个层的形状。输出：\n可以看到，在卷积层块中输⼊入的⾼高和宽在逐层减⼩小。卷积层由于使⽤用⾼高和宽均为5的卷积核，从⽽而将⾼高和宽分别减⼩小4，⽽而池化层则将⾼高和宽减半，但通道数则从1增加到16。全连接层则逐层减少输出个数，直到变成图像的类别数10。5.5.2 获取数据和训练模型 下⾯面我们来实验LeNet模型。实验中，我们仍然使⽤用Fashion-MNIST作为训练数据集。因为卷积神经⽹网络计算⽐比多层感知机要复杂，建议使⽤用GPU来加速计算。因此，我们对3.6节（softmax回归的从零开始实现）中描述的evaluate_accuracy函数略略作修改，使其⽀支持GPU计算。 output = self.fc(feature.view(img.shape[0], -1)) return outp
08_动手学深度学习PyTorch.md	此，我们对3.6节（softmax回归的从零开始实现）中描述的evaluate_accuracy函数略略作修改，使其⽀支持GPU计算。 output = self.fc(feature.view(img.shape[0], -1)) return output3132net = LeNet()print(net)12LeNet( (conv): Sequential( (0): Conv2d(1, 6, kernel_size=(5, 5), stride=(1, 1)) (1): Sigmoid() (2): MaxPool2d(kernel_size=2, stride=2, padding=0, dilation=1, ceil_mode=False) (3): Conv2d(6, 16, kernel_size=(5, 5), stride=(1, 1)) (4): Sigmoid() (5): MaxPool2d(kernel_size=2, stride=2, padding=0, dilation=1, ceil_mode=False) ) (fc): Sequential( (0): Line
08_动手学深度学习PyTorch.md	1)) (4): Sigmoid() (5): MaxPool2d(kernel_size=2, stride=2, padding=0, dilation=1, ceil_mode=False) ) (fc): Sequential( (0): Linear(in_features=256, out_features=120, bias=True) (1): Sigmoid() (2): Linear(in_features=120, out_features=84, bias=True) (3): Sigmoid() (4): Linear(in_features=84, out_features=10, bias=True) ))1234567891011121314151617\nbatch_size = 256train_iter, test_iter = d2l.load_data_fashion_mnist(batch_size=batch_size)12\n\n我们同样对3.6节中定义的train_ch3函数略略作修改，确保计算使⽤用的数据和模型同在内存或显存上。# 本函数已保存在d2lzh_pyt
08_动手学深度学习PyTorch.md	r = d2l.load_data_fashion_mnist(batch_size=batch_size)12\n\n我们同样对3.6节中定义的train_ch3函数略略作修改，确保计算使⽤用的数据和模型同在内存或显存上。# 本函数已保存在d2lzh_pytorch包中⽅方
…
08_动手学深度学习PyTorch.md	一步增⼤大了了输出通道数。 # 前两个卷积层后不不使⽤用池化层来减⼩小输⼊入的⾼高和宽 nn.Conv2d(256, 384, 3, 1, 1), nn.ReLU(), nn.Conv2d(384, 384, 3, 1, 1), nn.ReLU(), nn.Conv2d(384, 256, 3, 1, 1), nn.ReLU(), nn.MaxPool2d(3, 2) ) # 这⾥里里全连接层的输出个数⽐比LeNet中的⼤大数倍。使⽤用丢弃层来缓解过拟合 self.fc = nn.Sequential( nn.Linear(256*5*5, 4096), nn.ReLU(), nn.Dropout(0.5), nn.Linear(4096, 4096), nn.ReLU(), nn.Dropout(0.5), # 输出层。由于这⾥里里使⽤用Fashion-MNIST，所以⽤用类别数为10，⽽而⾮非论⽂文中的1000 nn.Linear(4096, 10), ) def forward(self, img): feature = self.conv(img) output = self.fc(feature.v
08_动手学深度学习PyTorch.md	NIST，所以⽤用类别数为10，⽽而⾮非论⽂文中的1000 nn.Linear(4096, 10), ) def forward(self, img): feature = self.conv(img) output = self.fc(feature.view(img.shape[0], -1)) return output2223242526272829303132333435363738394041424344454647net = AlexNet()print(net)12AlexNet( (conv): Sequential( (0): Conv2d(1, 96, kernel_size=(11, 11), stride=(4, 4)) (1): ReLU() (2): MaxPool2d(kernel_size=3, stride=2, padding=0, dilation=1, ceil_mode=False) (3): Conv2d(96, 256, kernel_size=(5, 5), stride=(1, 1), padding=(2, 2)) (4): ReLU() (5): Max
08_动手学深度学习PyTorch.md	ing=0, dilation=1, ceil_mode=False) (3): Conv2d(96, 256, kernel_size=(5, 5), stride=(1, 1), padding=(2, 2)) (4): ReLU() (5): MaxPool2d(kernel_size=3, stride=2, padding=0, dilation=1, ceil_mode=False) (6): Conv2d(256, 384, kernel_size=(3, 3), stride=(1, 1), padding=(1, 1)) (7): ReLU()12345678910\n\n5.6.3 读取数据 虽然论⽂文中AlexNet使⽤用ImageNet数据集，但因为ImageNet数据集训练时间较⻓长，我们仍⽤用前⾯面的Fashion-MNIST数据集来演示AlexNet。读取数据的时候我们额外做了了⼀一步将图像⾼高和宽扩⼤大到AlexNet使⽤用的图像⾼高和宽224。这个可以通过torchvision.transforms.Resize 实 例例 来 实 现 。 也 就 是 说 ，我们在ToTensor
08_动手学深度学习PyTorch.md	演示AlexNet。读取数据的时候我们额外做了了⼀一步将图像⾼高和宽扩⼤大到AlexNet使⽤用的图像⾼高和宽224。这个可以通过torchvision.transforms.Resize 实 例例 来 实 现 。 也 就 是 说 ，我们在ToTensor 实 例例 前 使 ⽤用Resize 实 例例 ， 然 后 使 ⽤用Compose 实 例例 来 将 这 两 个 变 换 串串 联 以 ⽅方 便便 调⽤用。 (8): Conv2d(384, 384, kernel_size=(3, 3), stride=(1, 1), padding=(1, 1)) (9): ReLU() (10): Conv2d(384, 256, kernel_size=(3, 3), stride=(1, 1), padding=(1, 1)) (11): ReLU() (12): MaxPool2d(kernel_size=3, stride=2, padding=0, dilation=1, ceil_mode=False) ) (fc): Sequential( (0): Linear(in_features=6400, ou
08_动手学深度学习PyTorch.md	MaxPool2d(kernel_size=3, stride=2, padding=0, dilation=1, ceil_mode=False) ) (fc): Sequential( (0): Linear(in_features=6400, out_features=4096, bias=True) (1): ReLU() (2): Dropout(p=0.5) (3): Linear(in_features=4096, out_features=4096, bias=True) (4): ReLU() (5): Dropout(p=0.5) (6): Linear(in_features=4096, out_features=10, bias=True) ))11121314151617181920212223242526\n# 本函数已保存在d2lzh_pytorch包中⽅方便便以后使⽤用def load_data_fashion_mnist(batch_size, resize=None, root='~/Datasets/FashionMNIST'): """Download the fash
08_动手学深度学习PyTorch.md	lzh_pytorch包中⽅方便便以后使⽤用def load_data_fashion_mnist(batch_size, resize=None, root='~/Datasets/FashionMNIST'): """Download the fashion mnist dataset and then l
…
08_动手学深度学习PyTorch.md	56, 56])vgg_block_3 output shape: torch.Size([1, 256, 28, 28])vgg_block_4 output shape: torch.Size([1, 512, 14, 14])vgg_block_5 output shape: torch.Size([1, 512, 7, 7])fc output shape: torch.Size([1, 10])123456\n\n输出：ratio = 8small_conv_arch = [(1, 1, 64//ratio), (1, 64//ratio, 128//ratio), (2, 128//ratio, 256//ratio), (2, 256//ratio, 512//ratio), (2, 512//ratio, 512//ratio)]net = vgg(small_conv_arch, fc_features // ratio, fc_hidden_units // ratio)print(net)12345Sequential( (vgg_block_1): Sequential( (0): Co
08_动手学深度学习PyTorch.md	gg(small_conv_arch, fc_features // ratio, fc_hidden_units // ratio)print(net)12345Sequential( (vgg_block_1): Sequential( (0): Conv2d(1, 8, kernel_size=(3, 3), stride=(1, 1), padding=(1, 1)) (1): ReLU() (2): MaxPool2d(kernel_size=2, stride=2, padding=0, dilation=1, ceil_mode=False) ) (vgg_block_2): Sequential( (0): Conv2d(8, 16, kernel_size=(3, 3), stride=(1, 1), padding=(1, 1)) (1): ReLU() (2): MaxPool2d(kernel_size=2, stride=2, padding=0, dilation=1, ceil_mode=False) ) (vgg_block_3): Sequential( (0): Conv2
08_动手学深度学习PyTorch.md	: ReLU() (2): MaxPool2d(kernel_size=2, stride=2, padding=0, dilation=1, ceil_mode=False) ) (vgg_block_3): Sequential( (0): Conv2d(16, 32, kernel_size=(3, 3), stride=(1, 1), padding=(1, 1)) (1): ReLU() (2): Conv2d(32, 32, kernel_size=(3, 3), stride=(1, 1), padding=(1, 1)) (3): ReLU() (4): MaxPool2d(kernel_size=2, stride=2, padding=0, dilation=1, ceil_mode=False) ) (vgg_block_4): Sequential( (0): Conv2d(32, 64, kernel_size=(3, 3), stride=(1, 1), padding=(1, 1)) (1): ReLU() (2): Conv2d(64, 64, kernel_size=(3,
08_动手学深度学习PyTorch.md	uential( (0): Conv2d(32, 64, kernel_size=(3, 3), stride=(1, 1), padding=(1, 1)) (1): ReLU() (2): Conv2d(64, 64, kernel_size=(3, 3), stride=(1, 1), padding=(1, 1)) (3): ReLU() (4): MaxPool2d(kernel_size=2, stride=2, padding=0, dilation=1, ceil_mode=False) ) (vgg_block_5): Sequential( (0): Conv2d(64, 64, kernel_size=(3, 3), stride=(1, 1), padding=(1, 1)) (1): ReLU()12345678910111213141516171819202122232425262728\n\n模型训练过程与上⼀一节的AlexNet中的类似。\n输出：\n⼩小结 VGG-11通过5个可以重复使⽤用的卷积块来构造⽹网络。根据每块⾥里里卷积层个数和输出通道数的不不 (2): Conv2d(64
08_动手学深度学习PyTorch.md	41516171819202122232425262728\n\n模型训练过程与上⼀一节的AlexNet中的类似。\n输出：\n⼩小结 VGG-11通过5个可以重复使⽤用的卷积块来构造⽹网络。根据每块⾥里里卷积层个数和输出通道数的不不 (2): Conv2d(64, 64, kernel_size=(3, 3), stride=(1, 1), padding=(1, 1)) (3): ReLU() (4): MaxPool2d(kernel_size=2, stride=2, padding=0, dilation=1, ceil_mode=False) ) (fc): Sequential( (0): FlattenLayer() (1): Linear(in_features=3136, out_features=512, bias=True) (2): ReLU() (3): Dropout(p=0.5) (4): Linear(in_features=512, out_features=512, bias=True) (5): ReLU() (6): Dropout(p=0.5) (7): Linear(in
08_动手学深度学习PyTorch.md	U() (3): Dropout(p=0.5) (4): Linear(in_features=512, out_features=512, bias=True) (5): ReLU() (6): Dropout(p=0.5) (7): Linear(in_features=512, out_features=10, bias=True) ))293031323334353637383940414243batch_size = 64# 如出现“out of memory”的报错信息，可减⼩小batch_size或resizetrain_iter, test_iter = d2l.load_data_fashion_mnist(batch_size, resize=224)lr, num_epochs = 0.001, 5optimizer = torch.optim.Adam(net.parameters(), lr=lr)d2l.train_ch5(net, train_iter, test_iter, batch_size, optimizer, device, num_epochs)1234567tra
08_动手学深度学习Py
…
